…
        (company): Parameter containing: [torch.cuda.FloatTensor of size 766 (GPU 0)]
        (field_1): Parameter containing: [torch.cuda.FloatTensor of size 8 (GPU 0)]
        (field_2): Parameter containing: [torch.cuda.FloatTensor of size 119 (GPU 0)]
        (field_3): Parameter containing: [torch.cuda.FloatTensor of size 526 (GPU 0)]
        (field_4): Parameter containing: [torch.cuda.FloatTensor of size 3690 (GPU 0)]
        (field_5): Parameter containing: [torch.cuda.FloatTensor of size 20113 (GPU 0)]
    )
  )
  (message_aggregator): MeanMessageAggregator()
  (message_function): ModuleDict(
    (company): MLPMessageFunction(
      (mlp): Sequential(
        (0): Linear(in_features=320, out_features=160, bias=True)
        (1): LeakyReLU(negative_slope=0.01)
        (2): Linear(in_features=160, out_features=128, bias=True)
        (3): LeakyReLU(negative_slope=0.01)
      )
    )
    (field_5): MLPMessageFunction(
      (mlp): Sequential(
        (0): Linear(in_features=448, out_features=224, bias=True)
        (1): LeakyReLU(negative_slope=0.01)
        (2): Linear(in_features=224, out_features=128, bias=True)
        (3): LeakyReLU(negative_slope=0.01)
      )
    )
    (field_4): MLPMessageFunction(
      (mlp): Sequential(
        (0): Linear(in_features=448, out_features=224, bias=True)
        (1): LeakyReLU(negative_slope=0.01)
        (2): Linear(in_features=224, out_features=128, bias=True)
        (3): LeakyReLU(negative_slope=0.01)
      )
    )
    (field_3): MLPMessageFunction(
      (mlp): Sequential(
        (0): Linear(in_features=448, out_features=224, bias=True)
        (1): LeakyReLU(negative_slope=0.01)
        (2): Linear(in_features=224, out_features=128, bias=True)
        (3): LeakyReLU(negative_slope=0.01)
      )
    )
    (field_2): MLPMessageFunction(
      (mlp): Sequential(
        (0): Linear(in_features=448, out_features=224, bias=True)
        (1): LeakyReLU(negative_slope=0.01)
        (2): Linear(in_features=224, out_features=128, bias=True)
        (3): LeakyReLU(negative_slope=0.01)
      )
    )
    (field_1): MLPMessageFunction(
      (mlp): Sequential(
        (0): Linear(in_features=320, out_features=160, bias=True)
        (1): LeakyReLU(negative_slope=0.01)
        (2): Linear(in_features=160, out_features=128, bias=True)
        (3): LeakyReLU(negative_slope=0.01)
      )
    )
  )
  (memory_updater): GRUMemoryUpdater(
    (memory): Memory(
      (memory): ParameterDict(
          (company): Parameter containing: [torch.cuda.FloatTensor of size 766x128 (GPU 0)]
          (field_1): Parameter containing: [torch.cuda.FloatTensor of size 8x128 (GPU 0)]
          (field_2): Parameter containing: [torch.cuda.FloatTensor of size 119x128 (GPU 0)]
…
      )
      (last_update): ParameterDict(
          (company): Parameter containing: [torch.cuda.FloatTensor of size 766 (GPU 0)]
          (field_1): Parameter containing: [torch.cuda.FloatTensor of size 8 (GPU 0)]
          (field_2): Parameter containing: [torch.cuda.FloatTensor of size 119 (GPU 0)]
          (field_3): Parameter containing: [torch.cuda.FloatTensor of size 526 (GPU 0)]
          (field_4): Parameter containing: [torch.cuda.FloatTensor of size 3690 (GPU 0)]
          (field_5): Parameter containing: [torch.cuda.FloatTensor of size 20113 (GPU 0)]
      )
    )
    (layer_norm): LayerNorm((128,), eps=1e-05, elementwise_affine=True)
    (memory_updater): GRUCell(128, 128)
  )
  (embedding_module): IdentityEmbedding()
  (predict_patent): PredictionLayer(
    (company_embedding): Embedding(766, 128)
    (field_embedding): Embedding(20113, 128)
    (projection_layer): Linear(in_features=128, out_features=128, bias=True)
    (dropout): Dropout(p=0.1, inplace=False)
    (softmax): Softmax(dim=0)
    (fc_field): Linear(in_features=128, out_features=1, bias=True)
    (fc_company): Linear(in_features=128, out_features=1, bias=True)
    (mlp_his): Sequential(
      (0): Linear(in_features=128, out_features=64, bias=True)
      (1): LeakyReLU(negative_slope=0.01)
      (2): Linear(in_features=64, out_features=128, bias=True)
    )
    (mlp): ModuleDict(
      (company): Sequential(
        (0): Linear(in_features=128, out_features=64, bias=True)
        (1): LeakyReLU(negative_slope=0.01)
        (2): Linear(in_features=64, out_features=128, bias=True)
      )
      (field_5): Sequential(
        (0): Linear(in_features=128, out_features=64, bias=True)
        (1): LeakyReLU(negative_slope=0.01)
        (2): Linear(in_features=64, out_features=128, bias=True)
      )
      (field_4): Sequential(
        (0): Linear(in_features=128, out_features=64, bias=True)
        (1): LeakyReLU(negative_slope=0.01)
        (2): Linear(in_features=64, out_features=128, bias=True)
      )
      (field_3): Sequential(
        (0): Linear(in_features=128, out_features=64, bias=True)
        (1): LeakyReLU(negative_slope=0.01)
        (2): Linear(in_features=64, out_features=128, bias=True)
      )
      (field_2): Sequential(
        (0): Linear(in_features=128, out_features=64, bias=True)
        (1): LeakyReLU(negative_slope=0.01)
        (2): Linear(in_features=64, out_features=128, bias=True)
      )
      (field_1): Sequential(
        (0): Linear(in_features=128, out_features=64, bias=True)
        (1): LeakyReLU(negative_slope=0.01)
        (2): Linear(in_features=64, out_features=128, bias=True)
      )
    )
    (fc_field_1): Linear(in_features=5, out_features=1, bias=True)
  )
)
2024-06-09 14:35:32,656 - root - INFO - model training parameters:odict_keys(['time_encoder.w', 'time_encoder.b', 'memory.memory.company', 'memory.memory.field_1', 'memory.memory.field_2', 'memory.memory.field_3', 'memory.memory.field_4', 'memory.memory.field_5', 'memory.last_update.company', 'memory.last_update.field_1', 'memory.last_update.field_2'
…
